cache/embeddings/b169e5f6911eebfd88156b32c058234ac4b137648cc095228f69741e286f726c.npy (npy, 1664 bytes, 1 tensors)

array f4 [1, 384]
000000 6c 72 bc bc ea 8d b0 3d ed 86 83 bd 05 12 c9 bc
       -0.02300378 0.08620818 -0.064222194 -0.024544725
000010 ac 7f c3 bd 2b 85 e4 bc db bd 26 bd c0 59 f8 3d
       -0.09545836 -0.02789553 -0.040708404 0.121264935
000020 f8 8f 24 bd be eb f3 3c fb d6 27 3c ba 2d 00 3d
       -0.04017636 0.029775497 0.010244126 0.03129361
000030 6f dc 71 3c 46 e2 43 bb b6 85 60 3d 79 9b 49 bd
       0.014762028 -0.0029889508 0.054815017 -0.049220536
000040 91 a9 c4 bb d3 11 ae 3c c5 d4 02 3c 90 60 55 3c
       -0.006001659 0.021248734 0.0079852985 0.013023511
000050 55 05 8c 3d 9e d8 5c bd 0a 5d 4a bd d6 5b 3c 3d
       0.068369545 -0.05391752 -0.049405135 0.04598602
000060 fb 95 0b bd a1 20 48 bc 58 be 4b bd db 72 a1 bc
       -0.03407858 -0.012214811 -0.049742073 -0.019708088
000070 18 41 0e 3d a3 86 6d bd 83 78 25 bd db 1f 89 3d
       0.034730047 -0.057989728 -0.040398132 0.06695529
000080 e8 74 d1 3c 92 26 84 3c 8c ff 23 bc 92 42 96 3d
       0.02556844 0.016131673 -0.010009658 0.07336916
000090 b4 f6 56 3d 48 22 b9 bd ed 57 7d bc 4a d5 5c 3d
       0.05248137 -0.09039742 -0.015462858 0.053914346
0000a0 1c 7b 88 bd 87 e3 95 bb 96 ab 15 bd 6d c3 a2 bb
       -0.06664106 -0.0045742425 -0.03654059 -0.004967144
0000b0 e6 e8 98 3d 64 2c 62 bd cd 63 73 bd 4a cb 8a 3c
       0.07466297 -0.055218115 -0.05942135 0.016942639
0000c0 3c 7d 19 bd 9f 13 07 3d 83 c6 dd bd ca 2c 1b bb
       -0.03747295 0.032977697 -0.10828879 -0.002367782
0000d0 b6 31 93 bc 67 72 8b bc 38 43 6b bc 04 8b 38 3d
       -0.01796804 -0.017022325 -0.014359288 0.04505445
0000e0 8a 9c a4 3b ec 67 3a 3d cf e2 48 3c 39 4e 33 bc
       0.0050235437 0.045509264 0.012261107 -0.010943943
0000f0 f4 f2 8f 3d 5b 37 32 bc a8 c3 32 bd 04 11 83 3b
       0.070287615 -0.010877456 -0.043643624 0.003999831
000100 ed d7 40 3c 95 9b fd 3b 28 65 04 bc 5d 1e 04 3d
       0.011770231 0.007739494 -0.008080758 0.03225552
000110 5b af 3e bc 9d 63 a5 3c 6b 60 87 3d fb fc 70 bd
       -0.011638488 0.0201891 0.06610187 -0.05883501
000120 27 c0 1c bc e0 d4 24 bd 1c 64 e5 3c cd f9 b8 3a
       -0.009567297 -0.040242076 0.028001837 0.0014112532
000130 75 a9 c6 bc 01 e2 d3 ba 8d d5 15 bd 3e 50 8f bd
       -0.024250725 -0.0016165377 -0.03658061 -0.06997727
000140 da 4d 8b bc 7d 4a 84 bd 66 af 55 bd fa a2 38 3c
       -0.017004896 -0.0645952 -0.052169226 0.011269325
000150 8b c2 1e bc cb 92 f5 ba 5f 17 94 3c a5 27 54 bd
       -0.009689937 -0.0018735764 0.01807755 -0.05179562
000160 68 81 ad 3c 5d c7 88 3d 7f 44 38 3d a4 6b 9e ba
       0.02117987 0.066786505 0.044987198 -0.0012086523
000170 59 69 44 bc 08 02 5a bd cf 4e 38 bd fd f9 a1 3d
       -0.011988007 -0.053224593 -0.044997033 0.079090096
000180 d3 e3 d6 3c 5c ef 65 3b be dc 3c 3d fa 24 06 3d
       0.026231682 0.0035085296 0.046108954 0.032750107
000190 eb 9d a5 3d 7b c5 91 3d e0 0a f8 3d 46 88 23 bd
       0.08086761 0.071177445 0.12111449 -0.039924882
0001a0 28 95 36 bd 3c 2d 31 bc 53 11 9b 3c dc e3 9f bc
       -0.04457584 -0.010814007 0.01892916 -0.019517832
0001b0 1b 7b 23 bc 50 24 87 3b 51 50 9b bd bb 95 bb bc
       -0.009978081 0.004124202 -0.075836785 -0.022898545
0001c0 22 80 73 bd 6b 1f 7c bd 2f 75 c0 bd 64 4b ca 3d
       -0.05944837 -0.0615534 -0.09397351 0.09877661
0001d0 27 a6 9a bd 1e 07 9b bc d5 84 95 bd 92 f7 bb bc
       -0.07551222 -0.018924292 -0.07300726 -0.0229452
0001e0 cc 70 2f 3d 8a b2 8f 3c 0d b1 6d 3d 17 e9 b7 bd
       0.04283218 0.017541189 0.058030177 -0.08980005
0001f0 12 ef 94 bc 0d d1 08 bd fe 0b ae 3c e6 ba 76 0a
       -0.018180404 -0.03340249 0.021245953 1.1879621e-32
000200 d8 74 9b bd 2d 1d 09 bd 81 4a de bd b7 83 cc ba
       -0.075906456 -0.03347509 -0.10854054 -0.0015603219
000210 53 e6 63 3d c9 92 0f bd 1e fd bd bc 6c db 93 bc
       0.055639576 -0.035052095 -0.023191985 -0.018048964
000220 e3 99 39 bd 63 ac 03 3b 7d 26 8f bc 78 1e 1b 3d
       -0.045312773 0.0020091764 -0.017474407 0.037870854
000230 c4 7c 04 bc ff 26 01 bc a0 39 3f 3d 9a 6d 1e bd
       -0.008086387 -0.007882833 0.046685815 -0.038678743
000240 1f 6a b9 3c 68 99 cb 3d 03 a4 f8 bc 27 ba 9a 3a
       0.02263361 0.09941369 -0.030351644 0.0011804745
000250 64 5f 1c bd b5 29 2d bd b0 25 25 3d 2e ec b1 bc
       -0.03817691 -0.042276103 0.040319145 -0.021719065
000260 ba 94 b0 3d c9 82 96 3d 90 f0 c8 3c 4c 95 2d 3d
       0.08622117 0.07349164 0.024528772 0.04237871
000270 8e d7 b7 bd 47 33 de b9 c4 b0 ce 3d 36 fa ea bc
       -0.08976661 -0.00042381344 0.10092309 -0.028683763
000280 43 c7 5f bb 6b d4 f7 bc 99 db f9 bc 4a 4e 66 bd
       -0.003414587 -0.030252656 -0.03050022 -0.056227006
000290 d3 ec d7 bc b8 32 f6 bb cd ac 60 3b 25 fe a8 bd
       -0.026358044 -0.0075133704 0.0034282685 -0.08251599
0002a0 52 81 b2 bd 36 81 ff 3b 76 7f 50 bd db 5f 16 3d
       -0.08716072 0.0077973856 -0.050902806 0.03671251
0002b0 ce 1e cd 3c 2f 31 93 3d 48 4d 67 3c bc 78 0d bd
       0.025039103 0.071871154 0.014117546 -0.03453897
0002c0 25 be c7 3d 90 ce 55 3b 9a e9 96 bd 11 70 05 3c
       0.09753064 0.0032624342 -0.07368775 0.0081443945
0002d0 ee 06 be bc d4 6d 38 3d 59 5f 42 3d 4d 22 99 bd
       -0.023196664 0.045026615 0.04745421 -0.074772455
0002e0 1f be e9 3c 71 65 9b 3d 1a d6 44 bd 97 b1 0f 3c
       0.02853304 0.07587708 -0.048055746 0.008770368
0002f0 cb 17 b6 bc 73 e0 93 3c 16 94 fe bc 57 8e 6e bd
       -0.022228142 0.018051362 -0.031076472 -0.058241215
000300 d6 93 ba bc f0 3d 14 bd de 39 ef bc e5 b5 84 bc
       -0.022775572 -0.03619188 -0.029202398 -0.016200015
000310 17 f3 14 3e 47 26 6b bd 7d 5b 9b 3c f5 36 82 3d
       0.14545856 -0.05740955 0.018964523 0.063581385
000320 72 83 aa bd fe 1f ac 3d 91 eb d5 bc 4e f3 58 bd
       -0.083258525 0.084045395 -0.026113303 -0.05296641
000330 e5 73 82 bc 80 73 94 3c ca 4c b0 ba 61 18 57 bc
       -0.015924403 0.018121481 -0.0013450619 -0.013128371
000340 e1 c7 64 bd fc 69 e8 3c ce 8b 6a 3d 62 cf 6a 3d
       -0.055854682 0.02837085 0.057262234 0.057326682
000350 7f 96 ba 3d 2f 78 b2 3d 15 cd ae 3c 0c f1 06 3d
       0.09110736 0.087143295 0.021338025 0.032944724
000360 9b e4 21 3d 0e c4 13 3c 5d a4 5d bd ee b0 85 3d
       0.039524656 0.009018911 -0.054111827 0.06527887
000370 8f b5 b5 bd ef ed bc bc 6c 6e 9d 3d 9c 17 8a 8a
       -0.0887252 -0.023062674 0.07687077 -1.3297797e-32
000380 f3 bc 97 bb 6c bc 32 bd a4 89 92 bd 7a 53 82 3d
       -0.004630679 -0.043636724 -0.07155159 0.06363578
000390 6e d2 67 3c 65 aa 07 3d b2 0c 03 bd 97 a5 f8 bb
       0.014149291 0.033121485 -0.03199453 -0.007588099
0003a0 87 d0 3d 3d ed e2 02 bd 41 ff 54 bc 8e b3 9d bd
       0.046341445 -0.031954695 -0.01300031 -0.07700263
0003b0 68 f2 4d 3b d6 43 8b 3c 46 22 16 ba 80 ba a2 bc
       0.0031425003 0.01700012 -0.0005727153 -0.01986432
0003c0 82 e6 f0 bd d4 31 d7 bd 73 34 fb 3c 0b 53 b3 bb
       -0.11762716 -0.10507551 0.030664658 -0.005472546
0003d0 35 f7 d7 3b 52 1c 84 bc 4f 04 86 3c 92 ff 11 3d
       0.0065907487 -0.016126785 0.016359476 0.03564412
0003e0 6d e4 4c bb b1 da 2b bd d1 da 61 bd 71 66 dc bc
       -0.0031264082 -0.041956607 -0.05514032 -0.026904317
0003f0 63 5c 90 bd ff b6 0f bd 26 12 92 3d 5a 5e d1 bd
       -0.07048871 -0.035086628 0.07132368 -0.10223074
