cache/embeddings/b9bb17f152c7fb997b2ca75cdaac4664e1e650bec747233177c54ae8b542fecf.npy (npy, 1664 bytes, 1 tensors)

array f4 [1, 384]
000000 1a e6 b0 3a 2e 66 cd 3d 0c ea a1 bc 13 68 bf bd
       0.001349631 0.10029255 -0.019764923 -0.093460225
000010 49 bb 66 bd 56 92 b7 bc 14 ca 78 3d f4 28 3b 3c
       -0.056330953 -0.022408646 0.06073959 0.011423338
000020 c3 81 d1 3b 97 6a 5f 3d ab 89 0a 3e 4a f2 90 bd
       0.0063936426 0.05454501 0.13529079 -0.07077463
000030 20 0a 03 bd c8 a4 ea 3c d3 d6 53 3d 87 c6 13 3d
       -0.031992078 0.028643027 0.051718544 0.036078002
000040 0a 86 a8 bd e3 38 0a bd c1 a4 31 bd 12 5d e4 bc
       -0.08228691 -0.033745658 -0.043370012 -0.02787641
000050 9b 44 66 3e 7e 1c 9c bb d4 9b 6f bd 58 cf a8 3d
       0.22487108 -0.0047641387 -0.05849822 0.08242673
000060 13 0b 5c bd 2f 27 a1 3c 9b 1a 71 bd 52 a0 9f 3c
       -0.0537215 0.019672005 -0.058863264 0.019485626
000070 35 f5 32 bd 2d 0c 67 bc 28 ed f9 bc f0 98 db 3c
       -0.04369088 -0.014102024 -0.030508593 0.026806325
000080 27 23 54 3d 3a 15 ea bb d5 88 51 3d e3 05 b1 3c
       0.051791336 -0.0071436437 0.051155884 0.021609252
000090 02 e1 21 3d 04 db 82 bd d2 5a 49 3c 92 69 7e 3d
       0.039521225 -0.0638943 0.01228972 0.0621124
0000a0 cd a7 ee bd cc 68 1a 3d 77 f8 e9 bc d0 2d fb bc
       -0.11653099 0.0376976 -0.02856086 -0.030661494
0000b0 64 7f 54 3d 5f a5 c7 bd 77 9c 20 bd 13 63 6a 3c
       0.0518793 -0.09748339 -0.039211717 0.014305848
0000c0 46 56 5e 3d 8f f3 d5 bb 5f 99 9b bd 16 f5 50 3d
       0.054281496 -0.0065292786 -0.075976126 0.051014982
0000d0 8d 5c b0 bd 73 9e 48 3d fb 62 18 3c 95 73 f4 3c
       -0.08611403 0.048979234 0.0093009425 0.02984027
0000e0 ef a8 6c bd db ab 35 3d d5 38 f6 3d d1 89 cd bc
       -0.057778295 0.044353347 0.120225586 -0.02509013
0000f0 9b d8 a9 3c 13 b3 17 bc 8d 71 38 bd da c1 a7 3c
       0.020733168 -0.009259003 -0.045030165 0.020478178
000100 11 f7 09 3c 61 61 4b bd 2d 2c d2 bc 4c 78 71 bc
       0.008420722 -0.049653415 -0.02565583 -0.014738154
000110 23 38 39 bd 80 02 11 3e 83 a2 5a 3d a6 49 42 bc
       -0.04521955 0.1416111 0.05337764 -0.0118583795
000120 01 ce fe 3b db 35 1e 3c 56 5a 85 3d 5e 2b b1 3c
       0.0077760224 0.009656395 0.06511371 0.021627124
000130 ff be 08 bd e5 88 e4 bc c3 e5 c6 3a 10 40 8b bd
       -0.033385273 -0.027897308 0.0015174676 -0.06799328
000140 27 97 06 bb d0 5d 47 bd a7 ca 51 3d 25 cd 82 bc
       -0.002053687 -0.04867345 0.051218655 -0.015966961
000150 7e 41 43 3d b7 e3 fc bc 15 33 3c bc a7 4a a5 39
       0.04766988 -0.030870302 -0.011486788 0.00031526873
000160 ac 79 9c 3d 75 f9 6f 3c 3c ac 12 3c 09 cc 5d bc
       0.076403946 0.014646878 0.008952197 -0.013537415
000170 b7 f3 c3 bc 50 02 84 3c 15 54 aa 3b 3e fe 90 3d
       -0.023919923 0.016114384 0.0051980116 0.07079743
000180 7b a2 60 bc 73 0c d9 3c 36 8e a6 bc 69 d0 31 3d
       -0.013710613 0.026495194 -0.020331483 0.043411646
000190 be 99 b9 3d 6d d2 74 bb 4e 32 0d 3c 02 95 2a bb
       0.09062527 -0.003735687 0.008617951 -0.0026028757
0001a0 fa cf 4e bd ff b7 d6 3c b7 ea 72 3d 1a d7 63 bc
       -0.05049131 0.026210783 0.059305873 -0.013906265
0001b0 27 dc 12 3c 5e 6a 48 3d e4 ac 52 bd 4a eb 57 bd
       0.008963621 0.048929565 -0.051434413 -0.052714624
0001c0 3a 20 d2 3c 6e 41 87 bd eb 14 3e bd f7 6b 2c 3d
       0.025650132 -0.066042766 -0.046406668 0.04209515
0001d0 12 6b a7 bc 89 19 43 bd b9 1c c7 3d 96 f4 96 bc
       -0.020436797 -0.047631774 0.09722275 -0.018427175
0001e0 ff 77 6f 3d 51 3f 09 bd 8f e2 0f bd 92 b5 7d bd
       0.058464047 -0.03350765 -0.035128172 -0.061940737
0001f0 50 81 2c 3c e7 be 1e bc 6c a5 cd 3c dc 41 55 0a
       0.010528877 -0.009689069 0.025103293 1.0267964e-32
000200 95 1b 1c 3d 59 cc 6d 3a 8d 32 a9 bc 95 98 8e 3c
       0.03811224 0.00090712827 -0.020653987 0.017406741
000210 9c 84 d3 3c dd b3 8d bc a8 d0 aa bd 7e 05 23 3d
       0.025820069 -0.01729768 -0.08340579 0.03980016
000220 76 1b f1 bd 1a 4d 17 3d ec c5 7c bd 7e af a5 bc
       -0.11772816 0.036938764 -0.06171219 -0.020225283
000230 fa 9a 45 bd 48 23 ec bc 11 ef 97 3d 77 1c b4 bc
       -0.0482435 -0.028825417 0.07418645 -0.02198623
000240 2d 8a a4 3d 59 95 1b 3c cf 47 1f 3d bc 95 6a 3c
       0.080341674 0.0094960565 0.03888684 0.014317926
000250 e4 b1 4e bd 64 c1 6d 3d 57 56 46 bc 0c 7c a9 bc
       -0.05046262 0.05804576 -0.012105546 -0.020689033
000260 be b1 bf bc 01 2b 26 3d 35 eb c6 3c db 56 92 bd
       -0.023400184 0.040568355 0.024282077 -0.071454726
000270 dd 98 0e bd c3 57 35 3d 56 c2 c4 3c 3b 9c 75 3b
       -0.03481375 0.04427315 0.024018448 0.0037477154
000280 7c 9d 0a 3d 82 13 a7 3c 59 b5 15 bc 81 c5 71 bd
       0.033841595 0.020395044 -0.009137475 -0.059026245
000290 36 05 e3 3c 09 f6 4f 3d 8e 2e c0 bd c5 e6 41 bd
       0.027712446 0.050771747 -0.093838796 -0.04733922
0002a0 23 f3 53 bd 0e 39 12 3d f5 23 1c 3c fd ea 54 3c
       -0.051745545 0.035698943 0.009530057 0.012995479
0002b0 fd d1 d6 3d 32 89 0e bd bc b1 b7 3d 04 cd e2 3c
       0.10489271 -0.03479881 0.08969447 0.02768565
0002c0 4c 23 9f 3a 87 21 a9 3d 7d 57 8a bd 29 1c 12 3d
       0.0012141257 0.08258348 -0.06754968 0.035671387
0002d0 4e 43 34 bd 6f 5a 9e bc 88 25 bc 3c 1e 77 91 bc
       -0.0440095 -0.019330231 0.022967115 -0.017756995
0002e0 64 55 22 bd 55 60 a2 3d e9 9c e6 b9 dc 06 14 3c
       -0.039632216 0.0792853 -0.00043985926 0.0090348385
0002f0 10 43 17 3c de c4 ec 3b 54 b2 89 3d 14 3e 80 3a
       0.009232298 0.007225617 0.067234665 0.0009784126
000300 27 6e 97 3c c4 eb a0 bc f1 ba ae bc ad d8 87 bc
       0.018485142 -0.019643672 -0.021329375 -0.016582811
000310 ff c7 13 3e 8a 29 69 3d 57 99 b8 bd b2 94 56 bc
       0.14431761 0.05692438 -0.09013622 -0.013096975
000320 f7 ce af bd 2a d7 1a 3c 8c fa 25 bd 51 21 7e bd
       -0.08584397 0.009450713 -0.040522143 -0.06204349
000330 6b de 17 3d a1 60 cf bc 5c 4c 3a bd a0 51 24 3d
       0.03707735 -0.025314631 -0.04548298 0.040116906
000340 1e 89 96 3b 95 72 b4 bd d8 76 2f 3d 80 ed 32 3d
       0.0045939824 -0.08810917 0.042837948 0.04368353
000350 77 72 5b ba 08 26 a1 bc cb ad 1f 3d 44 d8 b1 bc
       -0.00083712436 -0.019671455 0.0389841 -0.021709569
000360 6a de 75 bb 70 70 00 3d 42 6b a7 bd 5c 5f 8e 3d
       -0.0037516602 0.03135723 -0.08174755 0.06951782
000370 48 fb f8 3c cd 81 3f bd 71 1e 6c bc b3 3e 56 8a
       0.030393258 -0.046754647 -0.014411555 -1.03155176e-32
000380 03 9e db 3c 4d 23 a6 bc 69 eb 4b 3c 65 b3 6a bb
       0.026808744 -0.020280505 0.012446263 -0.0035812494
000390 0a e5 e7 bc 96 82 82 bc 91 6c d1 3c 9d a5 11 3d
       -0.028307457 -0.015931409 0.025564464 0.03555833
0003a0 43 b5 69 3d ef ad ea bd 1a a6 61 bc 5a 16 d8 bd
       0.05705763 -0.114589565 -0.013772512 -0.10551138
0003b0 02 11 49 3d 95 41 33 bd b1 b1 cd bb f2 e8 b8 3c
       0.049088486 -0.043763716 -0.006277286 0.022572014
0003c0 1d d7 81 bd 55 b3 6e bd 29 7c 8c 3c 81 15 57 3c
       -0.06339858 -0.058276493 0.017149048 0.0131276855
0003d0 58 d9 28 bd 1b 4b d6 3c cd d2 76 bc da 21 7f 3d
       -0.0412229 0.02615886 -0.015064907 0.062288143
0003e0 71 ed 99 3c 8c 06 1b bd 12 1d 51 3c 2d 6a ae 3b
       0.018789979 -0.03784804 0.012763279 0.0053227157
0003f0 02 a9 8f bc fc ac 95 3c a1 69 92 3c 9f 01 55 bd
       -0.017536644 0.018270962 0.017872633 -0.0520035
